…
2018-12-03 02:05:30.406005: I tensorflow/core/common_runtime/gpu/gpu_device.cc:971]      0
2018-12-03 02:05:30.406032: I tensorflow/core/common_runtime/gpu/gpu_device.cc:984] 0:   N
2018-12-03 02:05:30.406218: I tensorflow/core/common_runtime/gpu/gpu_device.cc:1097] Created TensorFlow device (/job:localhost/replica:0/task:0/device:GPU:0 with 5265 MB memory) -> physical GPU (device: 0, name: GeForce GTX 1060, pci bus id: 0000:01:00.0, compute capability: 6.1)
_________________________________________________________________
Layer (type)                 Output Shape              Param #
=================================================================
conv2d_1 (Conv2D)            (None, 32, 32, 32)        896
_________________________________________________________________
activation_1 (Activation)    (None, 32, 32, 32)        0
_________________________________________________________________
batch_normalization_1 (Batch (None, 32, 32, 32)        128
_________________________________________________________________
conv2d_2 (Conv2D)            (None, 32, 32, 32)        9248
_________________________________________________________________
activation_2 (Activation)    (None, 32, 32, 32)        0
_________________________________________________________________
batch_normalization_2 (Batch (None, 32, 32, 32)        128
_________________________________________________________________
max_pooling2d_1 (MaxPooling2 (None, 16, 16, 32)        0
_________________________________________________________________
dropout_1 (Dropout)          (None, 16, 16, 32)        0
_________________________________________________________________
conv2d_3 (Conv2D)            (None, 16, 16, 64)        18496
_________________________________________________________________
activation_3 (Activation)    (None, 16, 16, 64)        0
_________________________________________________________________
batch_normalization_3 (Batch (None, 16, 16, 64)        256
_________________________________________________________________
conv2d_4 (Conv2D)            (None, 16, 16, 64)        36928
_________________________________________________________________
activation_4 (Activation)    (None, 16, 16, 64)        0
_________________________________________________________________
batch_normalization_4 (Batch (None, 16, 16, 64)        256
_________________________________________________________________
max_pooling2d_2 (MaxPooling2 (None, 8, 8, 64)          0
_________________________________________________________________
dropout_2 (Dropout)          (None, 8, 8, 64)          0
_________________________________________________________________
conv2d_5 (Conv2D)            (None, 8, 8, 128)         73856
_________________________________________________________________
activation_5 (Activation)    (None, 8, 8, 128)         0
_________________________________________________________________
batch_normalization_5 (Batch (None, 8, 8, 128)         512
_________________________________________________________________
conv2d_6 (Conv2D)            (None, 8, 8, 128)         147584
_________________________________________________________________
activation_6 (Activation)    (None, 8, 8, 128)         0
_________________________________________________________________
batch_normalization_6 (Batch (None, 8, 8, 128)         512
_________________________________________________________________
max_pooling2d_3 (MaxPooling2 (None, 4, 4, 128)         0
_________________________________________________________________
dropout_3 (Dropout)          (None, 4, 4, 128)         0
_________________________________________________________________
flatten_1 (Flatten)          (None, 2048)              0
_________________________________________________________________
dense_1 (Dense)              (None, 8)                 16392
=================================================================
Total params: 305,192
Trainable params: 304,296
Non-trainable params: 896
_________________________________________________________________
Epoch 1/100
34/34 [==============================] - 3s 79ms/step - loss: 2.3941 - acc: 0.4181 - val_loss: 1.1906 - val_acc: 0.5855
Epoch 2/100
34/34 [==============================] - 1s 34ms/step - loss: 1.3785 - acc: 0.5409 - val_loss: 2.3521 - val_acc: 0.5677
…
